…
2017-11-28 10:32:19.413195: I tensorflow/core/common_runtime/gpu/gpu_device.cc:1031] Found device 0 with properties: 
name: GeForce GTX 1080 Ti major: 6 minor: 1 memoryClockRate(GHz): 1.582
pciBusID: 0000:01:00.0
totalMemory: 10.91GiB freeMemory: 10.75GiB
2017-11-28 10:32:19.413208: I tensorflow/core/common_runtime/gpu/gpu_device.cc:1121] Creating TensorFlow device (/device:GPU:0) -> (device: 0, name: GeForce GTX 1080 Ti, pci bus id: 0000:01:00.0, compute capability: 6.1)
_________________________________________________________________
Layer (type)                 Output Shape              Param #   
=================================================================
dense_1 (Dense)              (None, 1024)              1684480   
_________________________________________________________________
adaptative_bi_hyperbolic_1 ( (None, 1024)              3072      
_________________________________________________________________
dropout_1 (Dropout)          (None, 1024)              0         
_________________________________________________________________
dense_2 (Dense)              (None, 1024)              1049600   
_________________________________________________________________
adaptative_bi_hyperbolic_2 ( (None, 1024)              3072      
_________________________________________________________________
dropout_2 (Dropout)          (None, 1024)              0         
_________________________________________________________________
dense_3 (Dense)              (None, 1024)              1049600   
_________________________________________________________________
adaptative_bi_hyperbolic_3 ( (None, 1024)              3072      
_________________________________________________________________
dropout_3 (Dropout)          (None, 1024)              0         
_________________________________________________________________
dense_4 (Dense)              (None, 1024)              1049600   
_________________________________________________________________
adaptative_bi_hyperbolic_4 ( (None, 1024)              3072      
_________________________________________________________________
dropout_4 (Dropout)          (None, 1024)              0         
_________________________________________________________________
dense_5 (Dense)              (None, 1024)              1049600   
_________________________________________________________________
adaptative_bi_hyperbolic_5 ( (None, 1024)              3072      
_________________________________________________________________
dropout_5 (Dropout)          (None, 1024)              0         
_________________________________________________________________
dense_6 (Dense)              (None, 1024)              1049600   
_________________________________________________________________
adaptative_bi_hyperbolic_6 ( (None, 1024)              3072      
_________________________________________________________________
dropout_6 (Dropout)          (None, 1024)              0         
_________________________________________________________________
dense_7 (Dense)              (None, 1024)              1049600   
_________________________________________________________________
adaptative_bi_hyperbolic_7 ( (None, 1024)              3072      
_________________________________________________________________
dropout_7 (Dropout)          (None, 1024)              0         
_________________________________________________________________
dense_8 (Dense)              (None, 2)                 2050      
_________________________________________________________________
activation_1 (Activation)    (None, 2)                 0         
=================================================================
Total params: 8,005,634
Trainable params: 8,005,634
Non-trainable params: 0
_________________________________________________________________
Train on 7596 samples, validate on 845 samples
Epoch 1/100
 128/7596 [..............................] - ETA: 84s - loss: 8.2444 - acc: 0.3594
…
